models/cnn_time_classifier.pth (torch, 50381 bytes, 16 tensors)

conv1.weight f4 [32, 1, 3]
000000 01 f8 94 3c 06 f4 91 be 04 ec dc 3e 6d 67 eb bd
       0.018184664 -0.28506488 0.43148816 -0.11494336
000010 5a e0 69 be d9 79 bb 3e 0e ac c7 3e 1a 56 a6 3d
       -0.2283949 0.366164 0.38998455 0.08121891
000020 08 8b b2 3e 33 fd d3 3e ce bb a0 3d 59 df ac 3e
       0.34871697 0.41404113 0.07848321 0.3376415
000030 1e 0c 07 bf c3 32 ad 3e f8 72 91 3e d4 f3 bc 3e
       -0.52752864 0.3382779 0.28408027 0.36904776
000040 c3 11 4f 3e d2 44 71 be f6 73 89 3e ef a9 b1 bd
       0.2022162 -0.23561409 0.26846284 -0.086749904
000050 b4 0d e9 be 77 18 ff 3e 83 8f c9 be 16 fd 96 be
       -0.45518267 0.49823353 -0.39367303 -0.29489964
000060 32 b0 80 3e 29 b1 b0 be c9 5e 05 3f 7c c5 03 3e
       0.25134426 -0.34510162 0.52097756 0.12868303
000070 02 68 c2 be 8d 74 c3 bd 2f b2 a3 3e f2 c7 0a 3e
       -0.37969977 -0.09543715 0.3197188 0.13552836
000080 4d a6 f9 be 3b ca 83 be 44 33 38 3d fd c2 cf 3e
       -0.4875969 -0.25740227 0.044970766 0.40578452
000090 a4 18 dc 3e 96 2d 1d bf 72 a6 97 3e 3a 6b 66 3e
       0.4298755 -0.61397684 0.29619175 0.22501841
0000a0 bf 05 77 3d f5 3f ec 3d f6 39 27 be 04 68 85 be
       0.060308214 0.11535636 -0.16330704 -0.2605592
0000b0 fb 1a 5f 3e d6 b7 b3 3d 69 8d b7 3d 7d d6 c6 be
       0.21787636 0.08775298 0.08962519 -0.38835517
0000c0 32 3a 5a 3e 64 f6 d7 be 79 db 7c bd cd e1 dc 3e
       0.21311262 -0.4218017 -0.061732743 0.43141022
0000d0 fa 91 a8 3e 2e bb cc be 42 f6 15 be f5 63 be bd
       0.3292387 -0.39986557 -0.14644721 -0.09296409
0000e0 1b 78 73 be e7 8f a9 bd 59 40 b6 3e 95 1d f4 3e
       -0.23776285 -0.082794 0.35595968 0.4767882
0000f0 d5 21 4a 3d 35 9c f1 be 30 14 e4 3e a7 e7 6d bd
       0.04934867 -0.4718949 0.44546652 -0.05808225
000100 23 60 c6 3e eb bb 9d 3e 50 91 0f 3f 69 ad 33 bb
       0.38745221 0.30807433 0.56081104 -0.0027416593
000110 5b a7 0e bf 84 87 01 3e d5 7d dc 3e e2 fc d6 3e
       -0.55724114 0.12649351 0.43064752 0.4198981
000120 e4 9e ef 3d 5c 4e bf be 4d ee e7 3e fe 88 9e 3b
       0.11700228 -0.3736447 0.45298997 0.004838108
000130 59 b4 8a be 49 ea 6c be 6e 9c d6 be b3 cc 3d bd
       -0.2709072 -0.23136248 -0.4191622 -0.046337795
000140 99 65 fc 3d 52 02 96 be c5 96 a2 be 4c 40 48 be
       0.12324066 -0.29298645 -0.31755653 -0.19555777
000150 05 a2 db bd 19 05 d2 be 5c 28 0a 3f fe 30 90 3c
       -0.10724262 -0.41019514 0.53967834 0.017601486
000160 e6 24 a2 3e 3f 0a 91 3d 6f 0c 0b 3f ce 9b 75 be
       0.31668776 0.070820324 0.5431585 -0.23985216
000170 62 f2 8c be 53 25 db 3e 4a 55 75 3e a1 61 7f be
       -0.27528673 0.42801914 0.23958316 -0.24939586

conv1.bias f4 [32]
000000 dc b1 a7 bd b8 38 f8 3c c8 6c 80 be 35 ab 4a 3e
       -0.08188221 0.030300483 -0.25082994 0.19791873
000010 31 cf 1d bd 24 e7 cf be aa 63 fe 3e 61 77 8e 3d
       -0.03852767 -0.40606034 0.49685413 0.069563635
000020 77 04 51 be d3 a5 02 3f b8 8f 82 be f5 4f 03 3f
       -0.2041186 0.5103428 -0.25500274 0.5129388
000030 af 1d 4d 3e 5a 13 84 bd 92 7b 01 bf 78 d5 87 3e
       0.20030855 -0.064490035 -0.5057918 0.2653005
000040 11 18 ac be 20 1b c1 bd 62 50 46 3e 10 7d 3d be
       -0.3361211 -0.09429002 0.19366601 -0.18504739
000050 96 0a 0e 3e 8c b4 08 3e 51 26 1f be 40 74 79 3e
       0.13871226 0.13350123 -0.1554196 0.24360752
000060 ea ef b0 3d ff dd 4b 3e 37 bd 2e be 45 62 c0 be
       0.0863951 0.19908904 -0.17064367 -0.37574974
000070 72 9c 4f be 92 85 da 3e 6c 56 3a 3b 40 38 6a be
       -0.20274523 0.4268003 0.002843286 -0.2287302

bn1.weight f4 [32]
000000 58 ca 76 3f 85 23 8e 3f 77 09 64 3f e7 6b 62 3f
       0.964025 1.110459 0.8907694 0.88445896
000010 d1 e5 77 3f 57 30 72 3f 86 6d 81 3f af 6a 91 3f
       0.96835047 0.9460501 1.0111549 1.1360682
000020 46 af 67 3f 1c 6e 87 3f 33 38 86 3f d9 8d 87 3f
       0.9050182 1.0580478 1.0485901 1.0590163
000030 fa ab 81 3f 1b 06 67 3f 2d 0b 7d 3f 6f 81 76 3f
       1.0130608 0.9024369 0.9884518 0.9629125
000040 aa 53 8f 3f be f7 7e 3f ff 36 7b 3f 5a 39 60 3f
       1.1197407 0.99596775 0.9813079 0.8758751
000050 53 d5 8f 3f f5 a7 68 3f 3f db 85 3f 94 ea 60 3f
       1.1236976 0.9088128 1.0457534 0.8785794
000060 0a 15 7a 3f a2 ad 6e 3f 95 01 76 3f 50 b1 86 3f
       0.97688353 0.9323369 0.96096164 1.0522861
000070 00 f4 8f 3f 7e f5 6c 3f 1b fd 74 3f 53 e9 74 3f
       1.1246338 0.9256209 0.9569871 0.95668525

bn1.bias f4 [32]
000000 49 cc 0f bd c0 bf f3 3d 79 13 39 bd 4c 83 42 bd
       -0.03510693 0.11901808 -0.045184586 -0.047488496
000010 63 7e d8 bd 3c aa ed bc f6 9c 3b bd eb ec 0a be
       -0.10570981 -0.029011838 -0.045803986 -0.1356694
000020 00 34 3a 3c d1 be f2 bc 76 99 5c 3d 9f 9a 84 bb
       0.011364937 -0.029632004 0.05385729 -0.0040467526
000030 57 19 5c bc c3 3c 43 bd 89 9f 3f 3c 5e b3 42 bd
       -0.013433776 -0.04766537 0.011695751 -0.04753434
000040 42 cd df bd 4d b3 63 bd 79 f1 cf bd ce 9e 59 3d
       -0.10927822 -0.055590916 -0.10153479 0.053129964
000050 cb 92 59 bd f4 f2 c3 3c 3f 5d 3f 3d ad 04 c9 bc
       -0.05311851 0.02391956 0.046719786 -0.024538362
000060 68 f5 0a 3d f6 8a fb bd a3 65 fc bc e6 89 ad bd
       0.033925444 -0.12282364 -0.030810183 -0.08473568
000070 19 cc 88 3d 30 3b c8 bb 15 84 5a 3b 9c 11 91 bd
       0.066795535 -0.0061105713 0.0033342887 -0.07083437

bn1.running_mean f4 [32]
000000 cc 65 5b 41 ca 10 0a c0 fa da c4 42 ef 3c c8 42
       13.712353 -2.1572747 98.42769 100.11901
000010 2d 46 81 41 65 30 2f 42 52 42 02 c2 a5 85 e6 c1
       16.159266 43.79726 -32.564766 -28.815256
000020 2e b6 2f 42 7a 5e 3d c2 c4 0f 8d be 0a 4d ba 41
       43.92791 -47.342262 -0.2755109 23.287617
000030 cd 7a 28 40 ab 8c 42 42 e9 f7 f1 c1 0c d2 b2 c1
       2.6324952 48.63737 -30.24605 -22.352562
000040 99 eb 1e c2 50 4d 47 42 cd a0 67 c2 aa ee bc 42
       -39.730076 49.8255 -57.907032 94.46614
000050 ee 87 d4 c0 0c 4e a4 42 14 c9 b2 3f 20 0b f7 42
       -6.641593 82.152435 1.3967614 123.52173
000060 d8 2b 81 41 a1 8f 7d c2 93 15 2a c2 34 b3 cb c2
       16.146408 -63.390263 -42.52107 -101.850006
000070 c9 f3 bd c0 a4 74 58 42 dc 6c 92 3d 2b 61 5a 42
       -5.936009 54.113907 0.071496695 54.59489

bn1.running_var f4 [32]
000000 c3 ba 59 44 63 5b 30 44 62 2c c4 45 49 0d ca 45
       870.91815 705.4279 6277.548 6465.6606
000010 e0 85 1c 45 a5 fc 05 45 05 13 05 45 76 55 2d 45
       2504.3672 2143.7903 2129.1887 2773.3413
000020 0d 34 0d 45 42 72 cf 44 aa 19 de 44 ee 93 c0 44
       2259.2532 1659.5706 1776.802 1540.6228
000030 71 4e bc 44 9a 3f c1 44 f5 00 66 44 bf cc 77 44
       1506.4513 1545.9875 920.01495 991.19916
000040 19 a9 b3 44 01 3a 4e 45 c6 f1 04 45 3f 79 c4 45
       1437.2843 3299.6252 2127.1108 6287.156
000050 09 5c 70 44 16 f6 8a 45 47 fb 5b 45 f6 88 12 46
       961.43805 4446.7607 3519.7048 9378.24
000060 95 e0 7d 44 20 d9 21 45 d3 4e fb 44 ef a9 c2 45
       1015.5091 2589.5703 2010.4633 6229.2417
000070 fe ef b3 44 8c 62 db 44 04 44 0f 45 7f ef 3c 45
       1439.4998 1755.0796 2292.251 3022.9685

conv2.weight f4 [64, 32, 3]
000000 90 0c 13 3d df 56 ca 3d 05 d4 58 3d 85 f5 50 3d
       0.035900652 0.098798506 0.052936573 0.051015396
000010 e7 65 8f 3a 2c 44 04 3c bd 9b 68 bd a4 5b 80 3d
       0.0010940403 0.008072894 -0.05678915 0.06267479
000020 71 5b bb 3d 30 9d b7 3d 96 63 b9 3d 7a 53 03 3d
       0.091483004 0.08965528 0.09052198 0.03206203
000030 bd ec 77 bd fd 28 9e bd 11 76 b3 3d 31 42 ad bc
       -0.060528506 -0.07722662 0.08762754 -0.021149727
000040 9d 8e 12 bb 25 22 61 bd 7c 7f 80 3a 77 85 f6 3d
       -0.0022362836 -0.054964203 0.0009803618 0.12037175
000050 f6 23 82 3d aa 64 b9 bc cf 41 b8 3d 78 a1 ac 3b
       0.06354515 -0.022631008 0.08996927 0.005268272
000060 5f 5a e0 3d d5 73 fb 3c 61 e4 a4 3d 2c d5 2a bd
       0.10954737 0.030694881 0.08051372 -0.041707203
000070 8b 3e 65 bd e3 86 cb 3b 8f cc e2 3d 2e 75 83 bc
       -0.05596785 0.006211148 0.11074173 -0.016047087
000080 ac d2 7f 3d cc 84 10 3e 9a 6d 36 3d 9c 0c a9 bd
       0.06245677 0.14113158 0.044538118 -0.08254358
000090 16 03 2e 3d 0b 57 4c 3d d8 33 b0 3d 45 0c 41 3c
       0.04248341 0.0498877 0.086036384 0.01178271
0000a0 2d 56 ca 3d 0e 10 ec bc e6 f6 f8 3c aa 22 46 3d
       0.09879718 -0.02881625 0.030391168 0.048372902
0000b0 24 9a a0 bd f5 d8 c4 3d c3 1f 7c 3b 8e 84 6b 3d
       -0.078419 0.09611694 0.003847108 0.05749946
0000c0 0c 47 1f bd 86 0b ee 3b 70 4d b2 3d b2 d0 fe 3d
       -0.038886115 0.0072645573 0.08706176 0.12442149
0000d0 ed 57 b3 3d 57 2d 6f bb 20 2d 61 3c 5d 55 ae 3d
       0.08757005 -0.003649553 0.013743669 0.085123755
0000e0 a4 bb 4b 3c be d5 d7 3d 55 c8 29 bd 5e 55 7b 3d
       0.012434874 0.10538815 -0.041450817 0.06136071
0000f0 fb f5 01 bd c4 35 45 3d 0f 0f 6b 3d 7b 0d 5b bd
       -0.031728726 0.048146978 0.057387408 -0.053479653
000100 c8 8e 33 bd 58 72 a9 3d 49 b3 d6 3c 65 30 3b 3d
       -0.04383734 0.082737625 0.026208537 0.04570045
000110 ee 66 80 3d bc fe 37 3c 65 97 f4 bb 30 4c d0 bc
       0.06269632 0.011230167 -0.0074643367 -0.025426954
000120 88 a3 f3 3d 64 d5 00 bd d3 0b b0 3d b5 9c fe 3c
       0.118964255 -0.031453505 0.08596005 0.031080583
000130 ed 27 54 3c c2 9e b0 bd 8e 45 74 3d 66 e9 02 bd
       0.012948972 -0.08624031 0.059636645 -0.031960867
000140 15 83 b0 3d 97 e9 18 bd 35 ae fd 3c ad 18 e3 3d
       0.08618752 -0.037332144 0.030966857 0.11088691
000150 87 4f 7f bd 2f f0 bb 3d 69 cb 81 bd cd 64 f2 3d
       -0.062331703 0.09176671 -0.063376255 0.118356325
000160 14 4a 8e bd d4 bd 68 3d 73 f1 42 3d 2d f1 de 3c
       -0.06947723 0.05682166 0.047593545 0.027214611
000170 c4 b5 0b bd 58 5c f3 3d 4e 17 76 bd 3c 16 a4 3d
       -0.034108892 0.118828475 -0.06008082 0.08012053
000180 1c 5f a9 bd 0b 38 50 bd e2 2e f1 3c 5b cf 0f 3d
       -0.08270094 -0.050834697 0.0294413 0.03510986
000190 78 39 0d 3e 3e 5a b3 bd fb 35 4d 3b cb 3d dd 3b
       0.13791454 -0.08757447 0.0031312692 0.006751751
0001a0 0e 1a b9 bc e9 1c a1 3d 7c 19 fb bc 9c d4 5b bd
       -0.022595432 0.07866842 -0.0306518 -0.053669557
0001b0 3b fe 11 3d 7c 0f 80 bd 95 be e5 bc f5 d8 fb 3c
       0.035642844 -0.062529534 -0.028044978 0.030743102
0001c0 1f 46 ae bd 7e f4 2d bd c1 5d 30 bd cb 54 a7 bd
       -0.08509468 -0.042469494 -0.04305816 -0.0817047
0001d0 e1 c9 e9 3c 1e 32 c8 3d 31 0e 3c bd 6a e6 14 3c
       0.028538646 0.09775184 -0.04591197 0.009088138
0001e0 dc 58 6c bc 57 db b7 bd 54 99 0e 3e 63 17 d7 3c
       -0.014425483 -0.08977383 0.13925678 0.026256269
0001f0 f9 bc e7 bb 63 96 ab bd 92 73 1e 3e ed 80 fa 3b
       -0.007072088 -0.08378293 0.15473774 0.0076447637
000200 3a 0e 31 bd fa 8b bb bd 19 6b b4 3d 48 a3 1e 3c
       -0.043226458 -0.09157558 0.0880949 0.009682484
000210 3e 65 f3 3d 4b 7d a2 3d a6 d6 df bc 4e c2 b1 bb
       0.11884545 0.07934054 -0.027324032 -0.0054247743
000220 5b 0d 1c bd e8 79 19 bd 08 c7 27 3d e8 99 24 3c
       -0.038098674 -0.037469774 0.040961295 0.01004646
000230 76 ed ce bc 5b ba 8b 3d 80 87 0b 3c 08 a0 92 bd
       -0.025259715 0.06822654 0.008516192 -0.0715943
000240 d0 0c aa 3d 7a 4e c7 3c 8d 16 88 3c 28 52 dd 3c
       0.08303225 0.024329413 0.016612316 0.027016714
000250 38 8d 4a 3d 5c 6b 9e bd 4b 8c bb 3d 5b 36 ad bd
       0.049451083 -0.07735321 0.09157618 -0.08457633
000260 7b ea 8d bc e5 85 82 3d 2e c8 b6 bb 68 27 14 bd
       -0.017323723 0.063731946 -0.0055780625 -0.036170393
000270 97 0c d4 3d c5 58 18 3d e2 90 2f bd 6d 85 93 3b
       0.10353964 0.037194032 -0.04286278 0.0045019896
000280 b1 eb 62 bd 76 d1 23 3e 18 d6 21 3e d3 70 2b bd
       -0.055400554 0.15997872 0.15804327 -0.041855644
000290 22 06 2c bd 42 bf 9c bd 76 27 98 bd 7d b3 93 3d
       -0.041998036 -0.07653667 -0.074294016 0.07211969
0002a0 39 ef 3c 3d be c0 98 3d 83 18 03 3e 59 4d a8 3d
       0.046126578 0.07458638 0.12802319 0.08217878
0002b0 54 98 ef bc c6 f7 84 bd 42 f9 8f bd 55 dc 9c 3d
       -0.02924744 -0.064925715 -0.07029964 0.076592125
0002c0 c6 ef 0b bd b7 8d 4a 3d 8d 24 a8 bd 25 d8 dc bd
       -0.034164213 0.049451556 -0.082100965 -0.10783414
0002d0 b6 f0 ed 3d 58 14 da 3d b5 4e be 3d b1 bb 90 3d
       0.116181776 0.106484115 0.09292356 0.07067049
0002e0 36 92 b0 bd 0a 4b 7f 3b 68 17 4c 3d 20 61 a2 bd
       -0.086216375 0.003895464 0.04982701 -0.079286814
0002f0 ea fe 5e bd fe ae 04 3e ee df d5 bb f6 e9 aa 3d
       -0.054442324 0.12957379 -0.0065269386 0.08345406
000300 9b dd e0 bc 80 6a 74 3d 89 7c 06 be 52 92 15 bd
       -0.02744942 0.05967188 -0.13133444 -0.036516495
000310 29 17 66 bb f2 40 b6 bd e8 b1 2a bd a8 8b 1d bc
       -0.003510902 -0.08899106 -0.04167357 -0.009615816
000320 f2 87 64 3b 75 8f 8c 3d 03 17 da bc e9 65 8b bd
       0.0034871069 0.068633 -0.026622301 -0.06806547
000330 c9 cb 7d bd fa be 02 bd 61 44 1a 3d 0b 53 1a 3d
       -0.061961923 -0.03192041 0.037662867 0.037676852
000340 a3 8c 97 bc 38 f8 f4 bd 38 cf 93 bc a2 29 cf bb
       -0.018499678 -0.119614065 -0.018043146 -0.0063221017
000350 db 27 ab 3d 56 4e 15 bd f1 24 c7 bc 2e 7c f4 3d
       0.08357211 -0.03645166 -0.024309607 0.11937748
000360 74 eb 35 bd e6 07 87 3d 91 aa f8 bd b2 d4 d3 3c
       -0.044414 0.065933034 -0.12141908 0.025858257
000370 bf 9b 8d 3d 22 cf 88 3b 1f c6 46 be 93 c9 a1 3d
       0.06914472 0.004175083 -0.19411515 0.07899775
000380 3b 4d b2 bd 00 0b 0a bd fd 1c bc bc 93 34 2f bd
       -0.08706137 -0.033701897 -0.022963041 -0.042774748
000390 ec b7 2d 3c a8 fe 40 3d 1c 9f 5c 3d 8f 3d 8e 3b
       0.010602932 0.04711786 0.053862676 0.0043408344
0003a0 df 0c 57 bd 40 fb 81 3c ec f3 66 bd 5a 7d 0d 3a
       -0.05250251 0.015866876 -0.056384966 0.0005397402
0003b0 98 c2 67 bc b9 ee 57 bd 9b 13 0f 3e 60 3a 55 bd
       -0.014145516 -0.052717898 0.13972323 -0.052057624
0003c0 a8 dc 15 bd 3d 4e f0 bd 1f 64 60 bd 2e d0 e4 3a
       -0.036587387 -0.11733673 -0.054782983 0.0017457062
0003d0 b5 d2 f8 3d 5c 26 b1 3d 89 22 be bc be d1 c3 3c
       0.12149564 0.086498946 -0.023209827 0.023903724
0003e0 9b 43 81 bd b3 09 14 3d 9f 52 80 bd 03 b1 2d 3d
       -0.06311723 0.036142062 -0.06265759 0.04240514
0003f0 2b da dd bb 23 78 2e bc 63 da 3c 3d 59 b3 0b 3b
       -0.0067703924 -0.01064876 0.046106707 0.0021316616

conv2.bias f4 [64]
000000 ea 29 28 3d 22 0d cc 3d b7 c6 84 3d fb 87 0b 3d
       0.041055597 0.099634424 0.06483214 0.034065228
000010 1b 82 a5 3d b4 e9 2b 3d ec 61 22 bc 58 41 7a bd
       0.08081456 0.041970924 -0.009911042 -0.061097473
000020 9f cc 9a bc f1 25 48 3d 1a 67 ba 3d c9 fb ab bd
       -0.018896399 0.04886431 0.09101696 -0.083976336
000030 30 3b 86 3d 01 a8 b7 bd ef 1e 0b 3d bc cf c1 3d
       0.06554258 -0.08967591 0.033965047 0.0946345
000040 b1 8c 61 3d d9 ea ae bd bb bf 52 3d 6f 45 a4 bd
       0.055065814 -0.085408874 0.05145238 -0.08021056
000050 bd ba 7e 3c 79 b8 8d 3d 28 24 7e bd e7 e0 31 bd
       0.015547452 0.06919951 -0.0620462 -0.043427374
000060 b7 03 00 bd 02 bc 83 bb 8d 87 b4 3d 33 85 87 bd
       -0.031253543 -0.004020215 0.08814917 -0.066172026
000070 b1 a2 30 3d c3 0d 90 bd f7 33 06 bd fc 00 96 3d
       0.043123905 -0.07033875 -0.0327644 0.073244065
000080 28 68 1e 3c 66 74 6e 3d 62 f5 b5 bd 20 6e 38 3d
       0.0096683875 0.058216475 -0.08884694 0.0450269
000090 87 b5 b4 3d e6 1c 12 bd e8 f6 9c bc bd 6c 84 3d
       0.08823686 -0.03567209 -0.019160703 0.06466053
0000a0 cd 86 32 bd f5 4f 1c bd 5e ca 93 3d 69 3f d8 3d
       -0.043585587 -0.03816219 0.07216333 0.105589695
0000b0 53 e4 36 3d 70 98 d6 bd 37 5b c0 bd 0b 0d b7 bd
       0.04465134 -0.10478294 -0.09392398 -0.089380346
0000c0 69 ad c2 bd d4 dc 2e bc 57 38 c8 bc ff ac 54 bd
       -0.095057316 -0.010672767 -0.024440927 -0.051922794
0000d0 54 83 53 bc 93 a8 a3 bd a0 c2 bf bd cf 3a f9 bb
       -0.012909729 -0.07991137 -0.09363294 -0.0076058875
0000e0 67 61 cb 3d 5e 92 9c 3d fe ad 32 bd 93 6d 91 bd
       0.099306874 0.07645105 -0.043622963 -0.07100978
0000f0 c2 5c 3f bd e2 31 ac bb f8 52 48 3d ac 5d d1 bc
       -0.04671932 -0.00525497 0.04890725 -0.025557362

bn2.weight f4 [64]
000000 36 a3 7c 3f 4c 0a 92 3f 9a e0 81 3f 7f 21 82 3f
       0.9868654 1.1409392 1.0146668 1.0166472
000010 11 70 8b 3f 5c ef 8e 3f 09 ed 97 3f e7 fd 86 3f
       1.0893575 1.1166797 1.1869212 1.0546235
000020 80 f0 97 3f d5 2a 94 3f d9 99 8f 3f 90 d0 99 3f
       1.187027 1.1575571 1.1218826 1.2016773
000030 01 32 8c 3f 67 9c a2 3f a1 b4 8b 3f 1f 8c 8e 3f
       1.095276 1.270398 1.0914499 1.1136512
000040 ce 75 99 3f 78 63 8b 3f 56 51 8e 3f 7c c2 88 3f
       1.1989076 1.088973 1.1118572 1.0684352
000050 4d 16 9b 3f 77 22 88 3f 5a 72 83 3f 3d 0c 89 3f
       1.2116181 1.0635518 1.0269272 1.070686
000060 8d 7a 92 3f b9 ad 91 3f 64 d3 85 3f 4b fa 8b 3f
       1.144365 1.1381141 1.0455136 1.0935758
000070 58 a5 8a 3f 80 60 8e 3f 6d 7a 86 3f 51 7b 85 3f
       1.0831709 1.11232 1.0506111 1.0428258
000080 57 6d a7 3f 07 9a 8f 3f 56 43 9d 3f 3a 62 87 3f
       1.3080243 1.121888 1.2286174 1.0576851
000090 fd 65 95 3f 7d eb 91 3f 8e cd 9b 3f 79 ed 8a 3f
       1.1671749 1.139999 1.2172105 1.0853721
0000a0 47 3f 86 3f 63 1a 8a 3f a0 2d 88 3f d6 80 85 3f
       1.0488061 1.0789303 1.0638924 1.0429943
0000b0 cb f8 91 3f bb 66 95 3f af 4c 90 3f 5c fc 84 3f
       1.140405 1.1671976 1.1273402 1.0389514
0000c0 ec 2e 89 3f 80 86 8d 3f e8 5c 95 3f ee 07 88 3f
       1.0717444 1.1056671 1.1668978 1.062742
0000d0 3b d5 92 3f ef cd 86 3f 60 bc 96 3f a4 7a 98 3f
       1.1471323 1.0531596 1.1776237 1.1912427
0000e0 75 f8 87 3f 83 94 8e 3f a3 af 8d 3f 56 a9 92 3f
       1.0622698 1.1139072 1.1069225 1.1457927
0000f0 59 a0 92 3f ad 0f 87 3f a8 92 92 3f 8d 0a 9e 3f
       1.1455184 1.0551659 1.1451006 1.234697

bn2.bias f4 [64]
000000 a8 3e 30 bd d9 3c 29 3d 3c c3 07 bc 54 33 ed 3b
       -0.043028504 0.041317794 -0.008286294 0.007238785
000010 3f fb 6a 3c 52 30 fa 3c 62 da 1c 3e d3 de b8 bb
       0.014342128 0.030540619 0.15317681 -0.005641797
000020 cf 54 06 3d 50 4d 29 3c 40 70 4a 3d b5 b1 3b 3d
       0.032795724 0.010333374 0.049423456 0.04582377
000030 65 c7 5b 3d 33 e9 4f 3c 11 f9 09 bc 06 1d 9c 3c
       0.053656954 0.012689876 -0.008421198 0.019056808
000040 b5 ee 08 3d d8 a1 17 3d fa 79 0f 3d 31 33 e6 3c
       0.033430774 0.03701958 0.035028435 0.028100582
000050 a5 08 41 3d 9c 0f b3 3c a9 23 05 3b 15 67 b9 3c
       0.047127385 0.021858029 0.0020315445 0.022632161
000060 11 d3 55 3d 61 f9 b5 3c 72 d6 02 3d 97 21 80 3d
       0.05220324 0.02221364 0.031942792 0.06256407
000070 25 97 ee bb 7d 8f c6 3d 5e 1e 8a bb db be 64 bc
       -0.0072812014 0.09695337 -0.004215046 -0.013961519
000080 18 b0 18 3e 64 64 dd 3c b9 b9 78 3d 7e f7 e4 3c
       0.14910924 0.027025409 0.060723994 0.027950045
000090 f9 33 a9 3c 76 86 fe bc cc 95 d4 3c 37 e7 38 3d
       0.020654665 -0.031069975 0.025950335 0.04514238
0000a0 0c 0f 06 3d 2a c1 a0 38 ef 2b e8 3c 6d b7 60 bc
       0.032729194 7.665374e-05 0.028341262 -0.013715607
0000b0 1f 9d dd 3b f9 2d b6 3d 92 f9 03 3d 64 e1 c2 3c
       0.006763115 0.08895487 0.03222043 0.023789115
0000c0 50 26 06 3d 26 ba 0f 3d 0a 5f b5 3b 5a a2 f2 3c
       0.03275138 0.035089634 0.005535011 0.02961843
0000d0 69 7a ad 3d 9d 87 95 3c 03 b2 44 3d 27 01 64 3d
       0.084706135 0.018253142 0.048021328 0.05566516
0000e0 9b b2 90 ba 65 06 16 bc ac 38 1c 3d 46 9d ee 3c
       -0.0011039557 -0.009156798 0.038139984 0.029127728
0000f0 f9 38 24 3d d8 12 56 3d fe dd c8 3c 59 d9 82 3d
       0.040093396 0.052264065 0.024519917 0.06389112

bn2.running_mean f4 [64]
000000 f6 20 93 3f be a6 b9 3e ca 32 ba bd e5 cc 24 be
       1.1494434 0.36260027 -0.090917185 -0.16093786
000010 e0 78 9f 3d 61 80 26 be c4 be a3 bc d9 fa 40 be
       0.07786727 -0.1625991 -0.019988425 -0.18845691
000020 88 59 e6 3d ff 18 90 3e d0 5b 8c b9 fb c5 d9 bd
       0.112475455 0.2814407 -0.00026771287 -0.10633465
000030 80 f9 07 3e 43 92 cb 3d 39 d0 c4 3e a9 49 8b 3e
       0.1327877 0.099400066 0.3844011 0.27204636
000040 92 41 1c 3d 8f 1f f0 be 2c ef 3c 3e c6 2a 23 3f
       0.03814847 -0.46899077 0.18450612 0.6373714
000050 48 fa fd bd 0a 61 26 3e 24 24 e2 be 87 36 85 bd
       -0.12401253 0.16247955 -0.44168198 -0.06504541
000060 28 9e d8 be 39 d9 a3 be 54 2d de bd e3 55 03 bf
       -0.42308164 -0.32001665 -0.108484894 -0.5130293
000070 d7 60 f4 be 7f 10 9a be 10 47 24 be c2 10 39 3f
       -0.47730133 -0.3009071 -0.16042733 0.72291195
000080 28 d8 99 be b1 97 86 3e 04 19 ac be 0e 3b fe be
       -0.30047727 0.26287606 -0.33612835 -0.4965443
000090 c3 a2 96 3e 33 e5 66 3e 9e 46 2c 3e 0f 6c 34 3e
       0.29421052 0.2254837 0.16823813 0.17619346
0000a0 9f 98 17 be 9f 44 a5 3e c7 e0 14 be 9b c4 58 be
       -0.14804314 0.32278916 -0.14538871 -0.21168749
0000b0 ce 17 3c 3e 17 67 06 bf 41 e8 2e 3e 11 17 cb bd
       0.18368456 -0.5250105 0.17080785 -0.09916509
0000c0 d6 46 47 3c 9c ed 14 3f a8 ab 3e be fe 46 c4 be
       0.012162885 0.58175063 -0.18620169 -0.38335413
0000d0 cd 99 4b 3e 51 54 b2 3e ef d8 1e bd bf d2 35 3d
       0.19882889 0.34829953 -0.038781103 0.044390436
0000e0 6f 8e 7a 3e 8c 9f 19 3e 03 2c 0d 3f 49 9a a5 bb
       0.24468397 0.15002269 0.5514528 -0.0050537926
0000f0 76 c6 88 3e 11 34 08 3d b7 9b 48 bd 4e 3e 9d bd
       0.26713914 0.03325278 -0.048976626 -0.07677899

bn2.running_var f4 [64]
000000 28 87 31 3f 9a ce 83 3e 53 78 7a 3e 02 23 0c 3e
       0.6934686 0.25743562 0.24459963 0.1368523
000010 ee f8 01 3f 39 15 19 3f 9d f7 85 3e 78 96 45 3e
       0.5077046 0.5979801 0.26165476 0.1929568
000020 02 15 a8 3d 9d 1d 8a 3d 8c bd 92 3e a5 bf a7 3d
       0.08207132 0.067439295 0.28660238 0.0819085
000030 39 82 a0 3e c7 b2 88 3d 87 31 74 3e a6 49 78 3d
       0.31349352 0.06674724 0.23847018 0.06061711
000040 7d 1f a4 3e b0 26 be 3e 53 21 09 3f 90 fa 7a 3e
       0.32055274 0.3713889 0.53566474 0.24509645
000050 9d 7d a1 3d 35 28 62 3e 90 c3 66 3e 50 d1 b4 3e
       0.07885287 0.2208565 0.22535539 0.35315943
000060 1b ac 5a 3e a2 63 b0 3d e2 81 8a 3e ea e8 dd 3e
       0.21354716 0.086127535 0.27052218 0.43341762
000070 2d 7c 14 3e fa 9f 76 3e 53 6c c3 3e 2d 81 84 3e
       0.14500494 0.24084464 0.38168582 0.25879803
000080 54 87 9b 3d c9 a6 05 3e e2 5a 15 3e c6 93 85 3e
       0.07594171 0.13051905 0.1458545 0.26089305
000090 8f 82 5d 3e 9b 27 a5 3d b6 f1 91 3e 17 9b a1 3e
       0.21631835 0.08064195 0.28504723 0.31563637
0000a0 1b c4 b7 3e 41 5e 89 3e 9f 48 60 3e d6 7b 2b 3e
       0.35891804 0.26829723 0.21902703 0.16746458
0000b0 4f 03 77 3d 97 fd 68 3e 63 85 af 3d f2 63 24 3e
       0.06030589 0.22752987 0.085703634 0.16053751
0000c0 50 0d 00 3e 8b 59 84 3e b1 82 2e 3d 4b de 44 3e
       0.12505078 0.25849566 0.042605106 0.19225423
0000d0 30 aa 70 3e 2e 55 a3 3e 2e 3e 85 3d 82 08 44 3e
       0.23502421 0.31900924 0.065060005 0.1914387
0000e0 d2 bd 6b 3e d7 46 e5 3d e5 a0 32 3e 6f 08 31 3e
       0.2302163 0.11195152 0.17444189 0.17288373
0000f0 ed 34 59 3e 03 4b 91 3e 24 fe ef 3d 6f 18 3b 3e
       0.21211596 0.28377542 0.11718395 0.1827104

fc1.weight f4 [32, 128]
000000 f4 c8 b0 3d 83 46 67 bd c6 35 d7 3c 40 a9 18 bd
       0.08632079 -0.05646373 0.026270758 -0.037270784
000010 75 93 a4 3c a0 dd cd 3d 7a 8e 3c 3d 09 cd 75 3d
       0.020089844 0.10052037 0.046034314 0.06000999
000020 39 3b 19 3e 0a 00 90 bd b3 f5 5e 3d 01 51 a0 bd
       0.14963998 -0.070312575 0.054433536 -0.0782795
000030 02 a8 6d 3d a1 5c a4 bd 49 5c b2 bc ba f0 6a 3d
       0.058021553 -0.0802548 -0.02177252 0.05735848
000040 85 07 0e bd 9b d4 29 3e d5 77 01 bd f6 ab 14 3d
       -0.03467514 0.16585009 -0.03160842 0.036296807
000050 0f 04 42 3c 81 54 08 3d cd 34 fe 3d 9e b5 13 be
       0.011841788 0.033283714 0.12412415 -0.1442475
000060 f7 01 49 bd 16 14 2f 3d 81 6e 0e be 8d 8a 9b 3d
       -0.04907414 0.042743765 -0.13909341 0.07594786
000070 51 33 6a bd 6e ba 2b 3d 50 8f 80 3c 82 64 2f 3e
       -0.057177845 0.04192584 0.015693337 0.17128184
000080 19 95 0a 3e 46 93 93 bc 6d ef 17 bb 9f 54 56 3d
       0.13533439 -0.018014561 -0.002318348 0.052326795
000090 97 66 b6 3d 82 93 a2 bb 39 e6 d6 bd 37 2b 87 3d
       0.08906286 -0.004961432 -0.1049313 0.066000395
0000a0 50 52 ae 3c e7 5d ca bc 1c 17 6d 3d e8 01 01 bd
       0.021279484 -0.02470298 0.057883367 -0.03149596
0000b0 4b 8f c0 3d 50 40 dd 3c 84 d7 99 3d 53 72 f9 3d
       0.09402331 0.027008206 0.075118095 0.12180009
0000c0 1e b4 ad bc 94 6c 9e 3d ab 14 cb 3d 61 71 3f bc
       -0.02120405 0.077355534 0.099160515 -0.0116847465
0000d0 6d f1 f6 bd ea c2 6b bd 9f ea 07 3e f1 59 85 3d
       -0.12057767 -0.05755893 0.13273095 0.065112956
0000e0 44 8a a8 3d b9 4a 28 3b ed aa a9 bd 48 7f ec 3d
       0.08229497 0.0025679304 -0.08284555 0.115477145
0000f0 15 b3 b6 bd 3c bd 08 3d 76 00 6b 3c 5a 32 2b 3b
       -0.08920876 0.033383593 0.014343372 0.0026122541
000100 70 2f 2c 3e da 2a 08 be 1a 0d 29 bd 82 32 ce bd
       0.16814971 -0.13297597 -0.04127226 -0.10068227
000110 a0 91 91 3c e8 6b 4f 3c 37 5d 10 bd 52 05 44 bd
       0.017769635 0.012660004 -0.035245147 -0.047856636
000120 56 16 2c 3c b5 d8 e3 bc 5e 35 a6 bd 24 e5 4e 3d
       0.010503372 -0.027813295 -0.08115648 0.050511494
000130 4a e2 88 3d 0a ec a2 bd 5a 3b 66 3d 54 24 80 3d
       0.06683786 -0.07955177 0.056208946 0.06256929
000140 d5 ae 02 3d 48 08 dd 3c 63 9a ae 3c dd 0e 32 bd
       0.031905014 0.026981488 0.021313852 -0.043471206
000150 fb 3b de bc f1 01 ba 3d 0c 00 b0 bd f4 e1 08 3d
       -0.02712821 0.090824015 -0.08593759 0.03341861
000160 22 1b c7 ba 0e dd bf 3d 2a 10 b1 3d 3b 02 20 be
       -0.0015190581 0.09368335 0.08645661 -0.15625851
000170 3f d5 08 bc 99 69 ad 3d 8d a4 52 3d c7 bd ab 3c
       -0.008351623 0.08467407 0.05142646 0.020964516
000180 b8 b9 08 bd 31 b7 b0 3b 8d b6 89 3d 4c 46 b8 bd
       -0.03338024 0.005392932 0.06724272 -0.08997783
000190 7f cc cf 3d 01 b3 d2 bc c0 e8 80 3d 79 be d8 3d
       0.101464264 -0.025720121 0.062943935 0.10583205
0001a0 1b 9a 82 bd 4a ac d6 3d 0e 53 27 bd e1 4f d5 3d
       -0.063770495 0.1048208 -0.04085069 0.10415626
0001b0 8b 9d 60 3c 83 2d fe bc 6e 9b c8 3d 69 af 66 3d
       0.013709436 -0.031027561 0.09795271 0.056319628
0001c0 d1 37 85 3c a8 92 d7 3c ec 0f 2d 3c 26 c6 17 3e
       0.016261967 0.026315048 0.010562878 0.14821681
0001d0 d2 8c 26 bd a1 f5 7f 3d 6e e8 ad 3c c6 fd 60 bd
       -0.04066164 0.06249011 0.021228995 -0.054929517
0001e0 83 a4 9b 3d fe 1e 23 bc 5a ca 40 3d f0 fb 58 bd
       0.075997375 -0.00995612 0.047067977 -0.05297464
0001f0 bb d1 f8 bd 21 0a f2 3d 3c c5 0a 3e 47 30 a3 bd
       -0.12149378 0.11818338 0.13551801 -0.079681925
000200 0c 25 9c 3d 1c 2c db 3d 94 a9 9e 3d 59 a2 fe bd
       0.07624254 0.107017726 0.07747188 -0.12433309
000210 28 bd da bd d0 9a cf 3c ac 1e 50 3d d4 b9 70 3d
       -0.1068061 0.025342375 0.0508105 0.05877097
000220 a6 91 77 bd 69 2c 0a 3e f0 b4 1c 3d 0b 9e bc 3d
       -0.060441636 0.13493504 0.038258493 0.09209832
000230 ba 04 03 bd 32 04 d9 3c c8 33 e2 bd a7 5f a2 bc
       -0.03198693 0.026491258 -0.11045033 -0.019821001
000240 85 f0 ee 3d 54 60 be 3c 7d 88 fb 3b 10 5b c6 3c
       0.11666969 0.023239292 0.007676183 0.024213344
000250 c8 96 0b bd 08 e8 eb 3d a3 18 b9 3d 0a 24 e8 bd
       -0.034079343 0.11518866 0.09037902 -0.11334999
000260 5d f6 06 3e 8b 92 b7 bd 53 1b 06 3b 8b 02 86 bd
       0.13179918 -0.08963498 0.0020463064 -0.06543454
000270 43 f4 3f bd f4 3a 12 3d 94 14 89 bd 63 40 db bc
       -0.046863806 0.035700753 -0.06693378 -0.0267641
000280 93 a6 e1 bc 2e 73 5f 3d 50 8b 07 3e 19 a0 95 3d
       -0.02754525 0.054553203 0.13236737 0.07305927
000290 90 ed 6e bd 15 cc 46 3d 3b fa d5 bd de 86 22 bd
       -0.058332026 0.04853447 -0.10448118 -0.0396794
0002a0 95 02 28 3d 18 59 07 be 58 4c 70 3d a6 05 01 3e
       0.041018087 -0.1321758 0.058666557 0.12599811
0002b0 c7 01 f6 bb 8f a8 35 bd 68 ed de 3b 8e 81 3f bd
       -0.007507536 -0.044350203 0.0068032034 -0.046754412
0002c0 86 f7 d3 3d 84 a2 79 bd 9e 20 2f 3e d2 03 36 3d
       0.10349946 -0.060946003 0.17102286 0.044437237
0002d0 51 91 83 3d d3 2f 00 3e 77 50 f2 bd e0 1a 93 3d
       0.06424201 0.12518243 -0.11831754 0.071828604
0002e0 f5 36 fe 3d 7a d5 69 bd ca 40 f7 3d 0c ff d8 bd
       0.12412826 -0.057088353 0.120729044 -0.10595521
0002f0 2b ee 80 3c cf 0a 83 bd c3 c8 be 3c 99 1c a1 bd
       0.015738567 -0.06398546 0.02328909 -0.07866783
000300 ff b3 1a 3d 82 44 65 bc 98 ab a0 3d ba 33 bb bc
       0.037769314 -0.013993384 0.07845229 -0.022851814
000310 cd 10 75 bd 2a 02 23 3e 3f c9 31 3d 53 3b 5c 3d
       -0.059830476 0.15918794 0.043404814 0.053767513
000320 4d 2a d8 bc ce cd 26 3d b2 87 b9 3d 8a 7e c7 bd
       -0.026387358 0.040723614 0.09059085 -0.09740932
000330 56 96 e0 bd a3 5f 9c 3d 2e e2 a7 bd a5 6e 3f 3d
       -0.10966174 0.07635429 -0.08197437 0.04673638
000340 b0 88 d1 3d ee 42 69 bd 3a 3f 3b 3d 20 7b 9b bd
       0.10231149 -0.056948595 0.045714594 -0.075918436
000350 a8 f9 8f 3d 4f d7 a2 bd a6 c5 15 3e ef 71 a7 bc
       0.0703004 -0.07951223 0.14626178 -0.02044007
000360 a8 e2 67 bd 66 af a0 3d 6c 70 65 3d 35 68 b0 bc
       -0.05661264 0.078459546 0.056015417 -0.021534065
000370 d8 4f 7e 3d 3b 23 cf ba 06 73 2a 3d 59 91 6b bd
       0.062087864 -0.0015803346 0.0416136 -0.05751166
000380 d8 72 fd 3c 82 67 08 be d2 59 23 3e c6 8b 6a 3d
       0.03093855 -0.13320735 0.15952232 0.057262205
000390 76 82 fa 3c 8b a3 e6 bc 12 fc a2 3d 0e e2 1b bd
       0.030579787 -0.028154155 0.07958235 -0.03805738
0003a0 62 67 94 3d 9e 44 2d bc 5a aa fc bc 40 a8 34 bc
       0.07246281 -0.010575442 -0.030842949 -0.011026442
0003b0 e9 60 5d bd 57 af ea 3d fb c7 04 be a4 01 45 3e
       -0.0540475 0.11459225 -0.12966911 0.19238907
0003c0 76 e4 ff 3d bc 98 c3 bc cc 8c a8 3c 81 2e 55 bd
       0.12494747 -0.02387654 0.02057495 -0.052046303
0003d0 f1 61 2b 3c 7c a4 0c be be b9 35 3e a9 f8 cb bd
       0.010460363 -0.13734621 0.17746636 -0.099595375
0003e0 98 88 78 bd 42 12 78 3d 98 de cf bd ef 5f 17 3e
       -0.06067714 0.060564287 -0.10149878 0.1478269
0003f0 78 57 b6 bd 5e 8b 7a 3d 11 58 66 bd 07 9b 19 3e
       -0.08903402 0.061168067 -0.05623633 0.15000544

fc1.bias f4 [32]
000000 81 3e 6a bd 6f e4 71 3d 91 88 a3 3d 5f 59 0f bd
       -0.057188515 0.059055742 0.07985032 -0.03499734
000010 4a 7d c6 3c 57 d3 9b 3d 69 29 f3 bb 6d 20 22 3d
       0.024229664 0.07608669 -0.007420708 0.039581705
000020 91 03 f0 3d 57 7d 0b bd 75 55 b0 3d 40 87 78 3d
       0.1171943 -0.03405508 0.0861005 0.06067586
000030 9a be a6 3d a7 96 8f 3d 5e b4 1d 3d 20 b9 fa 3d
       0.08141823 0.070111565 0.03850209 0.12242341
000040 38 1e df 3c 32 4d f2 3d 3d e3 18 3d 2b 85 57 3d
       0.02723609 0.1183113 0.037326086 0.052617233
000050 27 4c a4 3d bd 85 0b bc 9e 24 76 bc ab cb c7 3d
       0.080223374 -0.008515772 -0.015023379 0.097556435
000060 ae e7 cb 3a 5f 22 3e bd 95 1b a3 bd 78 9c 6a 3d
       0.0015556717 -0.046419498 -0.07964245 0.057278126
000070 1b 29 de 3d e6 60 17 bd 80 94 cf 3d 21 b8 0b bd
       0.10847684 -0.036957644 0.10135746 -0.034111146

fc2.weight f4 [3, 32]
000000 2b 17 80 be 88 10 09 be a7 85 0b 3e 52 e5 98 be
       -0.25017676 -0.13385212 0.13625203 -0.29862458
000010 af e9 c3 3d 74 bc d2 be 84 f2 87 be 10 48 ab 3b
       0.09566056 -0.41159403 -0.26552212 0.0052270964
000020 42 72 6b 3d 2e d0 af 3d 0e d0 25 3e fb 11 47 3c
       0.05748201 0.08584629 0.16192648 0.012150283
000030 e3 01 ea 3d 8b ec 23 3d 17 1e a9 be c8 61 b7 bd
       0.11426141 0.040020507 -0.3303077 -0.08954197
000040 5a a5 16 be cd 08 65 be 68 53 1f 3b ef 06 6d 3e
       -0.14711514 -0.22366638 0.0024311189 0.23147176
000050 c6 75 6d 3e 47 2e a1 3d 6f 9d 84 be 76 39 31 3e
       0.23189458 0.07870155 -0.25901362 0.17307076
000060 f8 3b 3f be 77 5b fd bd b1 28 46 3d 30 cd cb 3d
       -0.1867522 -0.12370961 0.04837865 0.09951246
000070 0d 53 a2 be 24 1c 7c be 18 a4 51 be 0a 7f 50 3e
       -0.31703988 -0.2462011 -0.20472753 0.20360962
000080 ff d1 ad 3d ec 29 6a 3e c5 51 b7 3c 72 a8 7c be
       0.08487319 0.22867554 0.022377858 -0.24673632
000090 c5 ec 15 3e 70 40 23 bd a3 73 0c be f4 2d 8f be
       0.14641102 -0.039856374 -0.13715987 -0.27964747
0000a0 31 f0 bc 3d d7 e4 4b be 4c 2a 45 bd e8 fa d3 3c
       0.092255004 -0.19911514 -0.04813604 0.025876477
0000b0 ce 4d 7a ba be 4f 54 be 79 1c 33 3e d8 c4 76 3e
       -0.0009548337 -0.20733544 0.1749133 0.24098527
0000c0 0e 7d 71 3e 89 c7 0a 3e f4 05 76 be 66 b1 ca bd
       0.23582861 0.13552679 -0.24025708 -0.09897117
0000d0 15 ed 44 3e 37 09 88 be aa 35 c1 3d 21 46 49 3d
       0.19231065 -0.2656953 0.09434064 0.049139146
0000e0 4b 16 0f be df 0d 87 3e 5f 4f 83 bd d6 b0 48 be
       -0.13973348 0.2637777 -0.06411623 -0.19598708
0000f0 05 ec 61 bd 80 b5 2c 3e c8 ad f8 3d 19 67 fc 3d
       -0.055156726 0.16866112 0.12142521 0.12324352
000100 ad 06 7e 3e e7 73 1e be 64 f5 81 be b4 fe 8b 3e
       0.24807234 -0.154739 -0.2538253 0.2734276
000110 eb 82 ef 3d 23 45 b9 bd bd 1e f7 3d 4f a5 e7 bd
       0.116948925 -0.0904639 0.1206641 -0.11310827
000120 26 ee 8f be 8b 2a 6d bb f9 36 5a be d4 21 c3 bd
       -0.2811138 -0.0036188688 -0.21310033 -0.095279366
000130 c8 16 88 be ba 66 3a 3e cc 54 e3 bd 1e 4f 41 3e
       -0.2657988 0.1820325 -0.11100158 0.18877837
000140 29 42 6e be 1a 19 e6 bd 39 0b c5 bc 27 1f 52 be
       -0.23267426 -0.112352565 -0.024053203 -0.20519696
000150 b4 8b 03 bc 41 07 56 be b8 80 28 be c2 f0 2d be
       -0.008028913 -0.20901205 -0.16455352 -0.16986373
000160 b0 21 5c 3e 11 72 81 be e1 f3 bb bd ea bf 62 3e
       0.21497226 -0.25282338 -0.091773756 0.22143522
000170 a8 07 b5 bd a6 83 4c 3e bb 51 54 3e df ee 66 be
       -0.08839351 0.19972095 0.20734303 -0.2255206

fc2.bias f4 [3]
000000 4e 60 0a be 50 8d e6 3c 28 3f 36 3e
       -0.135133 0.028143555 0.1779753
