models/dnn_time_classifier.pth (torch, 14245 bytes, 6 tensors)

layer1.weight f4 [64, 8]
000000 56 e8 44 3e 42 bf 44 be 10 c2 12 bd 4e f5 85 3e
       0.19229254 -0.19213584 -0.035829604 0.26163715
000010 89 a2 90 be 0a 65 9c 3e 86 c9 1f 3e 03 51 1e be
       -0.28249004 0.30545837 0.15604219 -0.15460591
000020 1d 46 a1 be 83 de 31 3e 1e 7a 1d 3e e5 d1 40 be
       -0.31498805 0.17370038 0.15378615 -0.18830068
000030 95 ee 05 3e 13 51 86 3d d4 93 9e 3e 55 79 15 3e
       0.13079293 0.065584324 0.3097216 0.14597066
000040 77 87 61 3d 86 5f a7 be 2d 28 9b 3e cb 3b 9a 3e
       0.05506083 -0.32690066 0.3030409 0.30123743
000050 50 ec fb bd 5e bd 84 bd 72 28 5c bd 57 d7 98 bd
       -0.123009324 -0.064814314 -0.05374951 -0.07462948
000060 a0 13 38 3e 6f 35 1f 3d c3 90 a3 be 8e 4a c8 3d
       0.17976236 0.038869318 -0.31946382 0.09779845
000070 8e de 75 be f3 28 9f 3d fd 62 03 3e b2 40 49 be
       -0.24010679 0.07771482 0.1283073 -0.19653586
000080 e4 b0 5b 3e 6b 86 f9 bc 4e a9 55 be 5d 6e 95 3e
       0.21454197 -0.030459603 -0.20865366 0.29185763
000090 7f 2b 6f 3e 9e 6d 8c 3e a0 d2 65 be 23 2a 81 be
       0.23356436 0.2742738 -0.22443628 -0.2522746
0000a0 dd 66 8e be c7 8c 88 3e b6 14 6f 3e c4 40 4e be
       -0.27812853 0.26669905 0.23347744 -0.20141894
0000b0 15 42 05 3e 46 39 3d 3d 36 b9 43 be c9 0e 4e bd
       0.1301349 0.0461972 -0.19113621 -0.05030707
0000c0 b6 6a 5a be 3c ff d3 bd ea 26 0f 3e 10 80 4c 3d
       -0.2132977 -0.103514165 0.13979688 0.049926817
0000d0 fd b5 86 be 98 37 b6 3d 54 7d 90 bd b9 fa 84 be
       -0.2631072 0.088973224 -0.070551544 -0.25972536
0000e0 92 5d a7 be 00 ce 79 3c a6 39 85 be c9 4e 5d be
       -0.32688576 0.015246868 -0.26020545 -0.21612085
0000f0 3c 7a ae 3d 80 97 b2 3c 7d e8 23 be a0 80 60 3d
       0.08519408 0.021800756 -0.16006656 0.054810166
000100 78 e3 1a 3e 78 ea 1b be 54 b3 0d be 56 dd 23 3d
       0.15125835 -0.15226161 -0.1383794 0.040006004
000110 56 9e 81 3d 3b 8e cd 3d 1c 71 67 3e 46 1d a2 bc
       0.06329028 0.10036894 0.22601742 -0.01978935
000120 0d eb b4 3d 73 e1 6d be 91 23 98 bd a9 e9 6d 3e
       0.08833895 -0.23230533 -0.07428659 0.23233666
000130 ee 30 bf be ca 41 86 be 41 c7 ab be 8e ef 87 3e
       -0.37342018 -0.26222068 -0.33550456 0.26549953
000140 08 7f 23 bd 67 ca a5 3e f2 21 43 be 98 e5 c4 bd
       -0.03991607 0.32380983 -0.19055918 -0.09614104
000150 12 06 69 3e 98 4a b4 be a1 6a b0 be 02 72 72 be
       0.22756222 -0.3521316 -0.3445635 -0.23676303
000160 00 1e c5 3b c4 88 a6 be dc 10 86 3d 49 17 99 3e
       0.006015539 -0.3252622 0.065461844 0.29900578
000170 c4 c3 92 bd 70 fa 7e bd b1 4e 9f be 30 0f 99 bd
       -0.071662456 -0.062250555 -0.31114724 -0.074736
000180 e0 8c ef 3c 28 39 94 3d ec 70 ee bd e5 3d 5d be
       0.02924198 0.07237464 -0.11642632 -0.21605642
000190 97 ac 3d be f6 a1 79 3e 37 f4 44 be 10 2c e1 3c
       -0.18522869 0.2437819 -0.19233786 0.027486831
0001a0 29 ae 02 bd f4 c8 cb bd 77 72 c1 3c 43 f5 98 3e
       -0.031904373 -0.09950438 0.023614151 0.2987462
0001b0 0f ad 90 3e 02 5f 87 bd 72 e4 6f bd bd 41 47 be
       0.28257033 -0.06609918 -0.05856747 -0.19458671
0001c0 6f 7e 97 bd 21 2c 11 3c 29 2a 98 3e 0f fb 83 3d
       -0.07397162 0.008860619 0.29719666 0.0644437
0001d0 5b ac a0 be b1 d4 e2 bd 5f 43 93 be fa 5f b8 3e
       -0.31381497 -0.11075724 -0.28762338 0.36010724
0001e0 b1 89 d3 3c a1 70 db bd 49 6d e4 3d cc 5a bb be
       0.025822492 -0.10714842 0.11153657 -0.3659271
0001f0 20 9d 1d be 06 de 98 bb 9c 16 68 3e 36 34 8f 3e
       -0.1539197 -0.004665139 0.22664875 0.2796952
000200 40 a2 41 bc 4b f3 b4 be b4 c2 85 3d 39 2b 4c be
       -0.011818469 -0.35341868 0.06531277 -0.19938363
000210 dd 44 a3 3e 60 f7 c2 bd 7c 0e c5 bd b0 14 57 bd
       0.31888476 -0.09519839 -0.09621903 -0.052509964
000220 79 68 a8 3e 01 12 09 3e 17 34 88 be 8f 7f 68 3d
       0.32892206 0.13385774 -0.2660224 0.056762274
000230 64 e5 fe 3d 76 fb 94 bd b7 2a 0c 3e f1 12 96 be
       0.124460965 -0.07274525 0.1368817 -0.29311326
000240 a9 ff 21 be 84 3d 79 3e 74 3b ac 3e 66 56 06 3e
       -0.15820183 0.24339873 0.3363911 0.13118896
000250 6f 92 48 be 81 16 f1 3d 47 53 4e be 5c eb 94 be
       -0.1958711 0.117718704 -0.20148955 -0.29085815
000260 53 3d 81 be c7 21 3b bd e9 b7 85 3d 48 c1 0d 3c
       -0.252421 -0.04568651 0.06529219 0.008652039
000270 5b 6b a1 3e fb ad 4a bd 1d f8 98 3e 2d 41 94 be
       0.31527218 -0.049482327 0.29876795 -0.28955975
000280 c4 09 5e be f7 b4 e7 3c 48 f9 3f 3e 51 4a 81 3d
       -0.21683413 0.028284533 0.18747437 0.06313003
000290 62 11 97 3e 03 1a 77 be 39 e1 89 3e 21 9c 61 3d
       0.2950545 -0.24131016 0.26929644 0.055080537
0002a0 db bb be 3d fc 95 b7 bb d9 bf 76 be 1e bc 4a 3e
       0.09313174 -0.0056025963 -0.24096622 0.19798324
0002b0 37 c4 b1 3d 76 09 84 3e 30 08 88 3e 72 00 99 be
       0.08680003 0.25788468 0.26568747 -0.29883152
0002c0 23 06 97 3e cc 40 ba bd 2b f3 7a be c3 72 93 3e
       0.2949687 -0.0909439 -0.24506824 0.28798494
0002d0 fc 13 b9 bd 41 86 93 3c 39 14 24 3c 0d 8a 78 be
       -0.09037015 0.018008353 0.010014587 -0.24271412
0002e0 5b 5d 43 3e 11 3b ff 3d aa 6f 8e 3e 4b 22 fa bd
       0.19078581 0.12462438 0.27819568 -0.12213572
0002f0 e8 c2 9a be e1 a4 cd 3c 9c 21 df bd fa 09 25 3c
       -0.30226827 0.025103034 -0.10895082 0.010073179
000300 12 3a 93 be b3 58 a2 3e f7 67 3e be 00 d6 02 bd
       -0.28755242 0.31708297 -0.18594347 -0.031942368
000310 a0 fb 12 3c b6 47 1d be ea 19 57 3e 75 7f 93 be
       0.008971125 -0.15359387 0.21005979 -0.2880818
000320 38 cc 42 bd ae 74 6a be b2 af 56 3e 3e c8 83 be
       -0.04755804 -0.22896072 0.2096546 -0.2573871
000330 37 51 8f 3e 9b 90 9c be 1d eb b4 be 00 45 0d 3c
       0.2799165 -0.30579075 -0.35335627 0.008622408
000340 6d 27 bb be 08 08 a0 3e 22 9c 9e 3e f2 02 3f be
       -0.36553517 0.31256127 0.30978495 -0.18653467
000350 09 c1 70 3e 14 b8 2d be b2 ba 4f 3d da b3 95 be
       0.23511137 -0.16964751 0.050715156 -0.29238778
000360 da e0 5e bc a7 25 f5 bd f6 54 89 3d 0a 2f cb 3d
       -0.0136034135 -0.11970072 0.06705658 0.09921081
000370 6f 39 ac be d2 95 c1 3c a7 4e 85 3e 78 ca 8c 3e
       -0.33637568 0.02363101 0.2603657 0.2749822
000380 0a 88 12 3e 6c d3 ef bb a2 70 67 3e f3 54 30 3e
       0.14309707 -0.0073189046 0.2260156 0.17219906
000390 cd 76 81 be de 48 38 bd eb 9a a9 be 9e c3 26 3d
       -0.2528595 -0.044991367 -0.33126006 0.0407139
0003a0 20 f2 db 3c f4 59 6e be a0 ec ac 3d 42 5d 7a 3e
       0.026848853 -0.23276502 0.0844357 0.24449638
0003b0 f2 06 9a be 32 40 a1 be b5 ea 30 be 68 a6 3b 3d
       -0.30083424 -0.3149429 -0.17277034 0.045812994
0003c0 11 b1 af be 54 1a 90 bd 5b fd 8a 3e 68 67 95 be
       -0.34314778 -0.07036272 0.2714642 -0.29180455
0003d0 9c 69 c1 bd 98 10 99 bd e2 ce 5a 3e 3b a0 06 be
       -0.094439715 -0.07473868 0.21367982 -0.1314706
0003e0 a8 12 65 3e 84 03 6a be 5e f3 ad 3d 3e d4 cb bd
       0.22370398 -0.22852904 0.08493684 -0.09952591
0003f0 ec d4 96 3e ed 0a 33 be 2b c6 11 be c0 f5 9a 3e
       0.29459321 -0.17484637 -0.14235751 0.30265617

layer1.bias f4 [64]
000000 57 08 99 be 4c 8c 1d be 06 c0 98 be a4 76 83 be
       -0.29889175 -0.1538555 -0.29834002 -0.25676453
000010 22 12 a5 be 80 62 91 3e c0 42 a8 3c 21 6f 08 be
       -0.32240397 0.28395462 0.020539641 -0.13323642
000020 5e 8c a9 bc b1 c0 87 3e c2 96 52 be ec 37 12 3e
       -0.020696815 0.265142 -0.20565322 0.14279145
000030 78 e7 86 bd ff 5b 66 be 16 ed bc 3e 17 fd 69 3e
       -0.06587118 -0.22496031 0.36899632 0.22850452
000040 f7 0a 85 3e 53 a0 d5 3d a9 fc 02 3d 64 46 c2 3d
       0.25984928 0.1043097 0.031979237 0.09486082
000050 c7 a0 a0 be 0a c1 9c 3e 3b 1b 90 be 4e 4e 97 3e
       -0.31372663 0.30616027 -0.28145775 0.2955193
000060 60 3b 65 be 98 d1 82 be 04 dc 9b 3d 83 13 94 3e
       -0.22385931 -0.25550532 0.07610324 0.28921136
000070 fe 56 92 bd 54 cc ca 3d 36 c8 9d be 78 3b a1 bd
       -0.07145499 0.09902254 -0.3081681 -0.07872671
000080 a4 8e 9f 3e 65 d7 03 3f 0f 55 a0 bd f8 f0 30 3e
       0.31163514 0.5150054 -0.07828724 0.17279422
000090 0e db 82 3e 02 44 06 3e 57 8e 89 3d ee 98 24 be
       0.2555775 0.1311188 0.06716602 -0.16073963
0000a0 3a d2 2d 3e 62 51 d5 3d 89 82 83 bd 3b 49 50 3e
       0.16974726 0.10415913 -0.06421382 0.20340435
0000b0 a7 aa a2 be 58 13 ee 3e 58 79 04 be ad 1e 3e 3e
       -0.31770822 0.46499133 -0.12936914 0.1856639
0000c0 a3 60 69 bd 53 be 71 be c8 05 bb 3d e8 28 55 3e
       -0.056976926 -0.23607759 0.09131962 0.20816386
0000d0 cb 38 a4 3e 5b 6b 9e 3e 75 bf 0f be ba 0f 7d be
       0.3207458 0.3094128 -0.14037879 -0.2471303
0000e0 4b 25 b7 be 15 dc 9f bd b3 df ec 3e 43 ac 4c be
       -0.3577064 -0.07805649 0.4626442 -0.19987588
0000f0 25 ac 00 be c2 01 7f 3e 17 d0 ca 3e d4 b3 c4 3d
       -0.12565668 0.24903014 0.39611885 0.09604612

layer2.weight f4 [32, 64]
000000 1b 4f ae bc d6 40 98 3d f4 87 ef 3d c1 e5 a2 bd
       -0.021277955 0.074342415 0.11695853 -0.07953978
000010 50 5a c2 bd 38 21 36 3c 04 e7 4a 3d 60 aa 9c bd
       -0.09489882 0.011116318 0.04953672 -0.07649684
000020 43 eb cc bd 57 ae 08 bc e4 5b 01 bd e6 bd ab 3d
       -0.1000581 -0.008342347 -0.031581774 0.0838583
000030 04 28 a2 3d 51 85 cd 3d aa 91 21 3d d8 7f dc bd
       0.079177886 0.10035194 0.039445557 -0.10766572
000040 e2 07 c5 bd b7 a3 9f bd 42 6f 03 3d d7 30 b9 3d
       -0.09620644 -0.07794898 0.032088526 0.090425186
000050 5c 4f 66 bd 2f 69 8b 3d f1 51 86 3d 88 d1 d3 bd
       -0.056228027 0.068071716 0.06558598 -0.10342699
000060 a8 6f 6c 3d 40 f7 57 bd 0d 3d 9a bd b8 d0 9e ba
       0.05772367 -0.05272603 -0.07531176 -0.0012116646
000070 16 bf 63 ba c6 71 e3 bd 8c 28 b4 bd 47 fd 5c 3d
       -0.0008687837 -0.11105685 -0.08796796 0.05395248
000080 1c 15 3e 3d 4a af 62 3d c8 fd 8a bd 5e be 09 3e
       0.04640685 0.05534295 -0.06786686 0.13451526
000090 1f 92 17 bd 2c 4e f2 3d 5a d8 c4 3d 82 3f f0 bd
       -0.037004586 0.11831316 0.09611578 -0.11730863
0000a0 f3 d2 a3 3d 6a 9e 21 3d 87 c5 7a bd 96 b0 4b bd
       0.0799922 0.039457716 -0.061223533 -0.049728952
0000b0 ca 80 b7 bc 86 1e 80 3d 12 33 bf 3d b3 99 15 bd
       -0.022400279 0.06255822 0.09335913 -0.036523532
0000c0 c0 f6 b3 bd a7 09 77 3c 7d c1 1c 3c 0f b4 75 bc
       -0.08787298 0.015077985 0.009567616 -0.014996543
0000d0 59 fb 59 3d 4a eb 74 bc 6f c5 41 3d 15 db fe 3d
       0.05321822 -0.014948675 0.047307428 0.1244413
0000e0 3d 93 6c 3c 76 89 66 3d 05 9e 4b 3c c1 04 0e be
       0.014439401 0.056283437 0.0124278115 -0.13869001
0000f0 d0 3c 7a 3d c0 8c 79 3b 46 5d 3a bd ae f8 d2 3d
       0.06109315 0.0038078278 -0.04549911 0.10301338
000100 ef 80 bb 3d 9b 7c 05 be 69 02 8c 3d f7 c4 7c bd
       0.091554515 -0.13035814 0.06836397 -0.061711278
000110 ad 58 be bc a9 68 9a 3d e4 02 3e bd a0 23 58 bd
       -0.023235643 0.075394936 -0.046389475 -0.05276835
000120 5b 69 bf 3c 5f 77 1f bd 84 5d 41 3d 70 76 f5 3d
       0.023365667 -0.0389322 0.047208324 0.11985481
000130 b0 6a f8 3c 73 39 68 3d 64 7f dc 3d c1 3c a9 bd
       0.03032431 0.056695413 0.10766485 -0.08263541
000140 00 60 3d 39 c4 dc ba bd f5 72 98 3b cf 66 57 bc
       0.00018060207 -0.09124139 0.004652376 -0.01314707
000150 d5 ce af 3d 6f 56 12 3d 02 94 36 bd 70 45 1f bc
       0.08584372 0.03572696 -0.044574745 -0.009721145
000160 70 b8 fa 3c 00 55 5e bd 2a ce ec 3c d0 65 57 bc
       0.030605525 -0.05428028 0.0289069 -0.013146833
000170 75 80 2b 3c 6a 62 bb 3d 34 bc 4a 3d fb 70 fa bc
       0.010467638 0.0914963 0.04949589 -0.030571451
000180 90 96 a1 3d e0 58 d9 3c e4 85 63 3d e3 63 65 3d
       0.07890046 0.026531637 0.05554761 0.056003463
000190 b4 e0 9f bc 24 80 32 3d 77 7e 32 3d ed 2e d3 bd
       -0.019516326 0.043579236 0.043577638 -0.10311685
0001a0 40 ee 9a bd 58 eb 8e bc f6 c0 1a 3e 2b 53 6f 3c
       -0.07564974 -0.017446205 0.15112671 0.014607231
0001b0 e0 05 81 3d 77 ae 57 bc f1 f5 b0 3d c6 62 8a bc
       0.06299949 -0.013164154 0.086406596 -0.016892802
0001c0 6a 1f a2 3c bd 7e 0a 3b b8 a7 ac 3d 8a 88 d2 bd
       0.01979037 0.002113267 0.08430427 -0.10279949
0001d0 a5 7a e7 bc c2 71 4a 3c c2 4f 90 3b 07 47 28 3e
       -0.028256724 0.012356224 0.004404039 0.16433345
0001e0 91 7e 00 be 76 6f 93 3d dd 31 3f 3d 6b 50 df bd
       -0.12548281 0.07198994 0.046678413 -0.109040104
0001f0 00 8c 86 bd 90 de 31 3d 45 dc ef bd 90 62 ef 3d
       -0.06569672 0.043425143 -0.11711935 0.11688721
000200 88 ac 90 bd 88 d1 fa 3c 18 f0 0a 3c 31 2f 05 be
       -0.07064158 0.03061749 0.008480094 -0.13006283
000210 c6 71 0b be fc f1 14 bc d4 2d d1 bd 30 a8 df bc
       -0.1361762 -0.009090897 -0.10213819 -0.027301878
000220 38 fd 23 3c e3 2c 05 bd 10 30 92 3d e8 ff e5 bd
       0.0100091025 -0.03251351 0.071380734 -0.11230451
000230 ca 18 ca bd 6b ca 45 3d 2e 0b a8 bd 90 51 e7 3d
       -0.098680094 0.048288744 -0.08205257 0.11294854
000240 68 1e cf bc 32 b9 2d bd 6c 34 d1 3d c1 bd dc bc
       -0.025283054 -0.042412944 0.10215077 -0.02694595
000250 e1 e6 e9 bd 32 9d 95 bd 4b c2 a7 3c 9c e9 8a 3d
       -0.1142099 -0.07305373 0.020478388 0.06782839
000260 10 db d7 3d d0 f5 3b bd dc 30 62 36 b6 5b b2 3d
       0.1053983 -0.045888722 3.3705064e-06 0.08708899
000270 b2 39 8b bd e0 ec 08 3c 58 21 78 bd 31 95 cb 3a
       -0.06798114 0.008357257 -0.060578674 0.0015532133
000280 61 37 a4 3d 35 18 a5 3d a4 5a 8f bc 3b 7f 2b 3d
       0.08018375 0.08061258 -0.017499276 0.041869383
000290 9c ba c5 3d 70 48 b5 bc 6c 8b f1 3c 30 10 8d bd
       0.096547335 -0.022129267 0.029485427 -0.06887853
0002a0 cb 3b b2 3c e8 d4 bf bc 61 c6 7f 3d 36 c8 86 3d
       0.021757027 -0.023416951 0.06244505 0.06581156
0002b0 fe 82 ad bd 11 e7 86 bd 7c 0b e6 bd ac 69 05 be
       -0.084722504 -0.06587041 -0.11232659 -0.13028592
0002c0 1e fc 09 be bc ab 2f 3d 89 9f 78 3d ff 54 c1 bd
       -0.13475081 0.042888388 0.06069902 -0.0944004
0002d0 bc d0 8a 3d b2 b0 76 bc 90 c3 18 3d 21 54 b4 3d
       0.06778094 -0.015056776 0.037295878 0.08805109
0002e0 3c 87 b9 3d fe 88 db bd 94 9c 68 3d eb 16 9c bd
       0.09058997 -0.107194886 0.05678995 -0.07621559
0002f0 25 04 ff bd c0 7e b5 bb 58 25 1f bd 40 f6 d6 3c
       -0.124519624 -0.0055387914 -0.038853973 0.026240468
000300 c3 a3 b8 bc d6 a9 1f 3d f4 38 4c 3d e2 c6 d9 bd
       -0.022539025 0.038980328 0.049859002 -0.10633637
000310 c0 4f 11 be 83 5d 78 bd e6 d4 83 3d be 6a ec 3d
       -0.14190578 -0.060636055 0.064370915 0.11543797
000320 19 2f e5 bd 91 08 5e 3d 00 a0 e4 3b 40 13 3f 3d
       -0.11190624 0.05420739 0.0069770813 0.046649218
000330 60 c4 45 3d 73 fe 1e ba 0e 2e 03 3e 71 d7 06 bd
       0.04828298 -0.00060651376 0.12810537 -0.032920305
000340 08 63 f4 3d 85 ed a7 bc ff f6 b0 bd 25 c0 0b 3d
       0.11932951 -0.020499 -0.08640861 0.03411879
000350 1a 59 62 3d 30 c6 d7 3c c8 40 93 bc 3c a9 3f 3d
       0.055260755 0.02633962 -0.017975226 0.046792254
000360 c4 e6 1e 3d c4 9d 5a bd af 09 a0 3c e6 83 e4 bb
       0.038794294 -0.053373113 0.019535867 -0.0069737313
000370 b9 33 1c bd 4c 00 3f bd 00 fc 4b bd 18 dd d7 bc
       -0.038135264 -0.046631142 -0.049800873 -0.026350543
000380 f3 bd 68 bd e7 6b 56 3e 91 07 e7 3c 9e 06 d6 3d
       -0.056821775 0.20939599 0.02820185 0.10450481
000390 07 6a cf bd b8 2e 0e 3d 4e ad 49 bc 11 a1 e9 3d
       -0.10127645 0.034712523 -0.012309385 0.11407674
0003a0 b8 1f 90 bd bf a1 ac bd e6 e0 85 3d 62 37 19 bd
       -0.070373 -0.08429288 0.065370366 -0.037406333
0003b0 f6 08 9e 3d 85 e0 da 3c b5 a4 57 3d a5 bc 50 bd
       0.07716553 0.026718387 0.05264731 -0.050961155
0003c0 f6 85 dd 3c 94 cd 2f be b4 85 fa 3b 6d 36 20 3d
       0.027041417 -0.17168266 0.007645333 0.039114404
0003d0 fe 47 4e 3d 17 f4 8a 3d 23 59 b8 bc f5 7d 6b bc
       0.050361626 0.06784838 -0.022503441 -0.014373292
0003e0 fb 3a aa 3c a3 15 be 3d 66 fb 46 3d 3f ed ee bd
       0.020780077 0.092814706 0.048579596 -0.11666345
0003f0 5e 5f f9 bd d0 05 44 3d 5d 27 d9 3d 48 4f 87 bd
       -0.12176393 0.047857106 0.10603211 -0.066069186

layer2.bias f4 [32]
000000 2a 6e 2e be b5 fe 76 bd 3a 96 36 bd 4c 9e ff 3d
       -0.17034212 -0.0603015 -0.04457686 0.124813646
000010 d8 82 58 3e a7 26 13 be 43 80 7e bc 43 41 3d bd
       0.21143663 -0.14370213 -0.01553351 -0.046204817
000020 50 6d b7 bd d3 30 e8 bd 8f 00 ba 3d cc 60 e4 bd
       -0.089563966 -0.113374375 0.09082138 -0.11151275
000030 ab cb 35 3e 5b c6 34 bc e0 3f 8a bd ec 0b 0b be
       0.17753474 -0.01103362 -0.067504644 -0.13578767
000040 da 34 13 3e 92 32 12 be d7 2e c7 bd 70 4e 78 3d
       0.1437563 -0.14277104 -0.09725731 0.06062168
000050 20 00 e2 bd f9 f2 4e 3e 1d 77 65 bd 4a d1 17 bd
       -0.1103518 0.20209874 -0.0560218 -0.037064828
000060 7c 4e 0f 3d 8a 47 00 be b5 9f 96 bd 5c 06 8a 3e
       0.034986958 -0.1252729 -0.073546804 0.26957977
000070 88 a1 ab 3b 5b 68 22 38 2f b6 27 3c c6 16 ce 3d
       0.005237762 3.8721e-05 0.010236307 0.100629374

output.weight f4 [3, 32]
000000 5a 05 23 be 4e 62 0a be 6f ef b4 3d 71 a5 29 3e
       -0.1592001 -0.13514063 0.08834731 0.16567017
000010 d7 70 be 3d 09 4a ea bd a1 21 b4 3d 09 26 d8 3d
       0.09298866 -0.11439902 0.08795477 0.1055413
000020 84 44 01 bd 03 06 b3 3d 84 7f d8 bd e5 55 df 3d
       -0.031559482 0.08741381 -0.10571197 0.10905055
000030 a1 e1 cf 3d d3 1e 9b bd 72 4f ef 3d 42 6f 0d be
       0.10150457 -0.07574239 0.11685075 -0.13811973
000040 00 9d 1e 3e 12 a9 63 3d f7 95 90 3c 25 7d 6c bc
       0.15489578 0.05558116 0.017649634 -0.014434134
000050 6d 66 eb bd 2e e7 03 3e ba a2 d3 bc 0b 4e a0 bc
       -0.114941455 0.12881157 -0.02583443 -0.019568464
000060 06 6b aa 3d 24 1a b3 bd 3c 5a 83 bd 39 57 61 3e
       0.08321194 -0.0874522 -0.06413695 0.22005929
000070 38 52 12 3e 59 14 77 bd 5e 69 de 3c 7b 10 b4 3d
       0.14289176 -0.06032214 0.027149852 0.08792206
000080 27 f0 84 bd 56 25 d6 bd 94 7c 47 ba 99 a0 48 3d
       -0.06491118 -0.1045634 -0.0007609811 0.048981283
000090 fc fe 19 be 14 1e 19 3e 6c fd ed 3b e8 47 a6 bd
       -0.15038675 0.1495288 0.0072628763 -0.08119184
0000a0 7e e4 e6 3d 80 04 12 3d 63 ff 73 3b 2a d2 08 3d
       0.1127405 0.035648823 0.003723108 0.033403553
0000b0 ce d1 16 be 09 29 4c 3c 8f ab f9 3d d7 40 e4 bd
       -0.14728472 0.012460955 0.12190925 -0.1114518
0000c0 a3 9f ce 3d 61 f7 b4 3d 9b a3 27 3e ad 59 db bd
       0.10089042 0.08836246 0.16371004 -0.10710464
0000d0 32 3b 4b 3d 75 76 9e 3d 6e b2 f1 bc af d7 06 3e
       0.049617 0.07737438 -0.029504027 0.13168214
0000e0 9e d1 b0 3d 0d 5f 2b 3e 6f 9d 05 be 49 5e ba bd
       0.08633731 0.16735478 -0.13048337 -0.09100015
0000f0 58 b0 ed bd 3f 0d ae 3d 61 0b e9 3d 60 10 0e be
       -0.116059005 0.0849862 0.113791235 -0.13873434
000100 b9 30 b7 3d 72 bc 95 3d 53 2c 4f b9 d6 0d 09 3e
       0.0894484 0.07311334 -0.0001975757 0.13384184
000110 80 c9 2b bc 26 8e 13 be f3 42 f1 bd 13 b5 cc 3d
       -0.010485053 -0.14409694 -0.11780348 0.09995475
000120 1b d7 df bd 20 e9 24 bd d8 fe f5 3d b2 e6 96 3d
       -0.109297 -0.040261388 0.12011498 0.073682204
000130 80 f6 01 3e e6 1f 2f 3d bd 8c c9 3c 7a 39 98 3d
       0.12691689 0.04275503 0.024603242 0.07432838
000140 fa 4d e4 bd 61 6d e3 3d 89 95 8d bd 47 e5 b6 bd
       -0.11147685 0.11104847 -0.06913287 -0.0893045
000150 8b eb 53 3d 8e f6 0b be 20 4c 3b bc 80 35 52 bd
       0.051738303 -0.13668272 -0.011431724 -0.051320553
000160 d0 08 77 bd 98 c3 c3 3d a6 78 19 3e e0 ef 02 be
       -0.06031114 0.09558791 0.1498743 -0.12786818
000170 4d 3d 35 3e cc 98 ca 3d 40 c8 92 bd 86 54 da 3d
       0.17699166 0.09892425 -0.07167101 0.10660653

output.bias f4 [3]
000000 71 2d 41 3c 35 86 fd 3d bd 43 1c bd
       0.011790619 0.123791136 -0.038150538
